…
I0823 22:47:38.532078  6151 net.cpp:322] The NetState phase (0) differed from the phase (1) specified by a rule in layer accuracy
I0823 22:47:38.532289  6151 net.cpp:58] Initializing net from parameters: 
name: "CaffeNet"
state {
  phase: TRAIN
  level: 0
  stage: ""
}
layer {
  name: "data"
  type: "Data"
  top: "data"
  top: "label"
  include {
    phase: TRAIN
  }
  transform_param {
    mirror: true
    crop_size: 227
    mean_file: "/home/kaushik/code/deeplearning-cats-dogs-tutorial/input/mean.binaryproto"
  }
  data_param {
    source: "/home/kaushik/code/deeplearning-cats-dogs-tutorial/input/train_lmdb"
    batch_size: 256
    backend: LMDB
  }
}
layer {
  name: "conv1"
  type: "Convolution"
  bottom: "data"
  top: "conv1"
  param {
    lr_mult: 1
    decay_mult: 1
  }
  param {
    lr_mult: 2
    decay_mult: 0
  }
  convolution_param {
    num_output: 96
    kernel_size: 11
    stride: 4
    weight_filler {
      type: "gaussian"
      std: 0.01
    }
    bias_filler {
      type: "constant"
      value: 0
    }
  }
}
layer {
  name: "relu1"
  type: "ReLU"
  bottom: "conv1"
  top: "conv1"
}
layer {
  name: "pool1"
  type: "Pooling"
  bottom: "conv1"
  top: "pool1"
  pooling_param {
    pool: MAX
    kernel_size: 3
    stride: 2
  }
}
layer {
  name: "norm1"
  type: "LRN"
  bottom: "pool1"
  top: "norm1"
  lrn_param {
    local_size: 5
    alpha: 0.0001
    beta: 0.75
  }
}
layer {
  name: "conv2"
  type: "Convolution"
  bottom: "norm1"
  top: "conv2"
  param {
    lr_mult: 1
    decay_mult: 1
  }
  param {
    lr_mult: 2
    decay_mult: 0
  }
  convolution_param {
    num_output: 256
    pad: 2
    kernel_size: 5
    group: 2
    weight_filler {
      type: "gaussian"
      std: 0.01
    }
    bias_filler {
      type: "constant"
      value: 1
    }
  }
}
layer {
  name: "relu2"
  type: "ReLU"
  bottom: "conv2"
  top: "conv2"
}
layer {
  name: "pool2"
  type: "Pooling"
  bottom: "conv2"
  top: "pool2"
  pooling_param {
    pool: MAX
    kernel_size: 3
    stride: 2
  }
}
layer {
  name: "norm2"
  type: "LRN"
  bottom: "pool2"
  top: "norm2"
  lrn_param {
    local_size: 5
    alpha: 0.0001
    beta: 0.75
  }
}
layer {
  name: "conv3"
  type: "Convolution"
  bottom: "norm2"
  top: "conv3"
  param {
    lr_mult: 1
    decay_mult: 1
  }
  param {
    lr_mult: 2
    decay_mult: 0
  }
  convolution_param {
    num_output: 384
    pad: 1
    kernel_size: 3
    weight_filler {
      type: "gaussian"
      std: 0.01
    }
    bias_filler {
      type: "constant"
      value: 0
    }
  }
}
layer {
  name: "relu3"
  type: "ReLU"
  bottom: "conv3"
  top: "conv3"
}
layer {
  name: "conv4"
  type: "Convolution"
  bottom: "conv3"
  top: "conv4"
  param {
    lr_mult: 1
    decay_mult: 1
  }
  param {
    lr_mult: 2
    decay_mult: 0
  }
  convolution_param {
    num_output: 384
    pad: 1
    kernel_size: 3
    group: 2
    weight_filler {
      type: "gaussian"
      std: 0.01
    }
    bias_filler {
      type: "constant"
      value: 1
    }
  }
}
layer {
  name: "relu4"
  type: "ReLU"
  bottom: "conv4"
  top: "conv4"
}
layer {
  name: "conv5"
  type: "Convolution"
  bottom: "conv4"
  top: "conv5"
  param {
    lr_mult: 1
    decay_mult: 1
  }
  param {
    lr_mult: 2
    decay_mult: 0
  }
  convolution_param {
    num_output: 256
    pad: 1
    kernel_size: 3
    group: 2
    weight_filler {
      type: "gaussian"
      std: 0.01
    }
    bias_filler {
      type: "constant"
      value: 1
    }
  }
}
layer {
  name: "relu5"
  type: "ReLU"
  bottom: "conv5"
  top: "conv5"
}
layer {
  name: "pool5"
  type: "Pooling"
  bottom: "conv5"
  top: "pool5"
  pooling_param {
    pool: MAX
    kernel_size: 3
    stride: 2
  }
}
layer {
  name: "fc6"
  type: "InnerProduct"
  bottom: "pool5"
  top: "fc6"
  param {
    lr_mult: 1
    decay_mult: 1
  }
  param {
    lr_mult: 2
    decay_mult: 0
  }
  inner_product_param {
    num_output: 4096
    weight_filler {
      type: "gaussian"
      std: 0.005
    }
    bias_filler {
      type: "constant"
      value: 1
    }
  }
}
layer {
  name: "relu6"
  type: "ReLU"
  bottom: "fc6"
  top: "fc6"
}
layer {
  name: "drop6"
  type: "Dropout"
  bottom: "fc6"
  top: "fc6"
  dropout_param {
    dropout_ratio: 0.5
  }
}
layer {
  name: "fc7"
  type: "InnerProduct"
  bottom: "fc6"
  top: "fc7"
  param {
    lr_mult: 1
    decay_mult: 1
  }
  param {
    lr_mult: 2
    decay_mult: 0
  }
  inner_product_param {
    num_output: 4096
    weight_filler {
      type: "gaussian"
      std: 0.005
    }
    bias_filler {
      type: "constant"
      value: 1
    }
  }
}
layer {
  name: "relu7"
  type: "ReLU"
  bottom: "fc7"
  top: "fc7"
}
layer {
  name: "drop7"
  type: "Dropout"
  bottom: "fc7"
  top: "fc7"
  dropout_param {
    dropout_ratio: 0.5
  }
}
layer {
  name: "fc8"
  type: "InnerProduct"
  bottom: "fc7"
  top: "fc8"
  param {
    lr_mult: 1
    decay_mult: 1
  }
  param {
    lr_mult: 2
    decay_mult: 0
  }
  inner_product_param {
    num_output: 2
    weight_filler {
      type: "gaussian"
      std: 0.01
    }
    bias_filler {
      type: "constant"
      value: 0
    }
  }
}
layer {
  name: "loss"
  type: "SoftmaxWithLoss"
  bottom: "fc8"
  bottom: "label"
  top: "loss"
}
I0823 22:47:38.532428  6151 layer_factory.hpp:77] Creating layer data
I0823 22:47:38.533092  6151 net.cpp:100] Creating Layer data
I0823 22:47:38.533118  6151 net.cpp:408] data -> data
I0823 22:47:38.533149  6151 net.cpp:408] data -> label
I0823 22:47:38.533164  6151 data_transformer.cpp:25] Loading mean file from: /home/kaushik/code/deeplearning-cats-dogs-tutorial/input/mean.binaryproto
I0823 22:47:38.533649  6164 db_lmdb.cpp:35] Opened lmdb /home/kaushik/code/deeplearning-cats-dogs-tutorial/input/train_lmdb
I0823 22:47:38.615981  6151 data_layer.cpp:41] output data size: 256,3,227,227
I0823 22:47:38.779140  6151 net.cpp:150] Setting up data
I0823 22:47:38.779163  6151 net.cpp:157] Top shape: 256 3 227 227 (39574272)
I0823 22:47:38.779167  6151 net.cpp:157] Top shape: 256 (256)
I0823 22:47:38.779170  6151 net.cpp:165] Memory required for data: 158298112
I0823 22:47:38.779188  6151 layer_factory.hpp:77] Creating layer conv1
I0823 22:47:38.779369  6151 net.cpp:100] Creating Layer conv1
I0823 22:47:38.779389  6151 net.cpp:434] conv1 <- data
I0823 22:47:38.779399  6151 net.cpp:408] conv1 -> conv1
I0823 22:47:39.671641  6151 net.cpp:150] Setting up conv1
I0823 22:47:39.671669  6151 net.cpp:157] Top shape: 256 96 55 55 (74342400)
I0823 22:47:39.671672  6151 net.cpp:165] Memory required for data: 455667712
I0823 22:47:39.671694  6151 layer_factory.hpp:77] Creating layer relu1
I0823 22:47:39.671705  6151 net.cpp:100] Creating Layer relu1
I0823 22:47:39.671710  6151 net.cpp:434] relu1 <- conv1
I0823 22:47:39.671715  6151 net.cpp:395] relu1 -> conv1 (in-place)
I0823 22:47:39.671978  6151 net.cpp:150] Setting up relu1
I0823 22:47:39.671990  6151 net.cpp:157] Top shape: 256 96 55 55 (74342400)
I0823 22:47:39.671993  6151 net.cpp:165] Memory required for data: 753037312
I0823 22:47:39.671998  6151 layer_factory.hpp:77] Creating layer pool1
I0823 22:47:39.672005  6151 net.cpp:100] Creating Layer pool1
I0823 22:47:39.672008  6151 net.cpp:434] pool1 <- conv1
I0823 22:47:39.672013  6151 net.cpp:408] pool1 -> pool1
I0823 22:47:39.672060  6151 net.cpp:150] Setting up pool1
I0823 22:47:39.672081  6151 net.cpp:157] Top shape: 256 96 27 27 (17915904)
I0823 22:47:39.672085  6151 net.cpp:165] Memory required for data: 824700928
I0823 22:47:39.672087  6151 layer_factory.hpp:77] Creating layer norm1
I0823 22:47:39.672114  6151 net.cpp:100] Creating Layer norm1
I0823 22:47:39.672124  6151 net.cpp:434] norm1 <- pool1
I0823 22:47:39.672129  6151 net.cpp:408] norm1 -> norm1
I0823 22:47:39.684593  6151 net.cpp:150] Setting up norm1
I0823 22:47:39.684612  6151 net.cpp:157] Top shape: 256 96 27 27 (17915904)
I0823 22:47:39.684617  6151 net.cpp:165] Memory required for data: 896364544
I0823 22:47:39.684623  6151 layer_factory.hpp:77] Creating layer conv2
I0823 22:47:39.684638  6151 net.cpp:100] Creating Layer conv2
I0823 22:47:39.684644  6151 net.cpp:434] conv2 <- norm1
I0823 22:47:39.684653  6151 net.cpp:408] conv2 -> conv2
I0823 22:47:39.701417  6151 net.cpp:150] Setting up conv2
I0823 22:47:39.701436  6151 net.cpp:157] Top shape: 256 256 27 27 (47775744)
I0823 22:47:39.701439  6151 net.cpp:165] Memory required for data: 1087467520
I0823 22:47:39.701449  6151 layer_factory.hpp:77] Creating layer relu2
I0823 22:47:39.701457  6151 net.cpp:100] Creating Layer relu2
I0823 22:47:39.701460  6151 net.cpp:434] relu2 <- conv2
I0823 22:47:39.701465  6151 net.cpp:395] relu2 -> conv2 (in-place)
I0823 22:47:39.701624  6151 net.cpp:150] Setting up relu2
I0823 22:47:39.701637  6151 net.cpp:157] Top shape: 256 256 27 27 (47775744)
I0823 22:47:39.701643  6151 net.cpp:165] Memory required for data: 1278570496
I0823 22:47:39.701648  6151 layer_factory.hpp:77] Creating layer pool2
I0823 22:47:39.701658  6151 net.cpp:100] Creating Layer pool2
I0823 22:47:39.701663  6151 net.cpp:434] pool2 <- conv2
I0823 22:47:39.701668  6151 net.cpp:408] pool2 -> pool2
I0823 22:47:39.701707  6151 net.cpp:150] Setting up pool2
I0823 22:47:39.701714  6151 net.cpp:157] Top shape: 256 256 13 13 (11075584)
I0823 22:47:39.701716  6151 net.cpp:165] Memory required for data: 1322872832
I0823 22:47:39.701719  6151 layer_factory.hpp:77] Creating layer norm2
I0823 22:47:39.701726  6151 net.cpp:100] Creating Layer norm2
I0823 22:47:39.701730  6151 net.cpp:434] norm2 <- pool2
I0823 22:47:39.701735  6151 net.cpp:408] norm2 -> norm2
I0823 22:47:39.702049  6151 net.cpp:150] Setting up norm2
I0823 22:47:39.702060  6151 net.cpp:157] Top shape: 256 256 13 13 (11075584)
I0823 22:47:39.702064  6151 net.cpp:165] Memory required for data: 1367175168
I0823 22:47:39.702066  6151 layer_factory.hpp:77] Creating layer conv3
I0823 22:47:39.702076  6151 net.cpp:100] Creating Layer conv3
I0823 22:47:39.702080  6151 net.cpp:434] conv3 <- norm2
I0823 22:47:39.702085  6151 net.cpp:408] conv3 -> conv3
I0823 22:47:39.726111  6151 net.cpp:150] Setting up conv3
I0823 22:47:39.726122  6151 net.cpp:157] Top shape: 256 384 13 13 (16613376)
I0823 22:47:39.726125  6151 net.cpp:165] Memory required for data: 1433628672
I0823 22:47:39.726135  6151 layer_factory.hpp:77] Creating layer relu3
I0823 22:47:39.726140  6151 net.cpp:100] Creating Layer relu3
I0823 22:47:39.726152  6151 net.cpp:434] relu3 <- conv3
I0823 22:47:39.726157  6151 net.cpp:395] relu3 -> conv3 (in-place)
I0823 22:47:39.726284  6151 net.cpp:150] Setting up relu3
I0823 22:47:39.726289  6151 net.cpp:157] Top shape: 256 384 13 13 (16613376)
I0823 22:47:39.726292  6151 net.cpp:165] Memory required for data: 1500082176
I0823 22:47:39.726294  6151 layer_factory.hpp:77] Creating layer conv4
I0823 22:47:39.726305  6151 net.cpp:100] Creating Layer conv4
I0823 22:47:39.726306  6151 net.cpp:434] conv4 <- conv3
I0823 22:47:39.726310  6151 net.cpp:408] conv4 -> conv4
I0823 22:47:39.742874  6151 net.cpp:150] Setting up conv4
I0823 22:47:39.742888  6151 net.cpp:157] Top shape: 256 384 13 13 (16613376)
I0823 22:47:39.742892  6151 net.cpp:165] Memory required for data: 1566535680
I0823 22:47:39.742897  6151 layer_factory.hpp:77] Creating layer relu4
I0823 22:47:39.742903  6151 net.cpp:100] Creating Layer relu4
I0823 22:47:39.742905  6151 net.cpp:434] relu4 <- conv4
I0823 22:47:39.742920  6151 net.cpp:395] relu4 -> conv4 (in-place)
I0823 22:47:39.743062  6151 net.cpp:150] Setting up relu4
I0823 22:47:39.743068  6151 net.cpp:157] Top shape: 256 384 13 13 (16613376)
I0823 22:47:39.743070  6151 net.cpp:165] Memory required for data: 1632989184
I0823 22:47:39.743072  6151 layer_factory.hpp:77] Creating layer conv5
I0823 22:47:39.743082  6151 net.cpp:100] Creating Layer conv5
I0823 22:47:39.743084  6151 net.cpp:434] conv5 <- conv4
I0823 22:47:39.743088  6151 net.cpp:408] conv5 -> conv5
I0823 22:47:39.754403  6151 net.cpp:150] Setting up conv5
I0823 22:47:39.754412  6151 net.cpp:157] Top shape: 256 256 13 13 (11075584)
I0823 22:47:39.754415  6151 net.cpp:165] Memory required for data: 1677291520
I0823 22:47:39.754423  6151 layer_factory.hpp:77] Creating layer relu5
I0823 22:47:39.754427  6151 net.cpp:100] Creating Layer relu5
I0823 22:47:39.754429  6151 net.cpp:434] relu5 <- conv5
I0823 22:47:39.754444  6151 net.cpp:395] relu5 -> conv5 (in-place)
I0823 22:47:39.754570  6151 net.cpp:150] Setting up relu5
I0823 22:47:39.754576  6151 net.cpp:157] Top shape: 256 256 13 13 (11075584)
I0823 22:47:39.754578  6151 net.cpp:165] Memory required for data: 1721593856
I0823 22:47:39.754581  6151 layer_factory.hpp:77] Creating layer pool5
I0823 22:47:39.754586  6151 net.cpp:100] Creating Layer pool5
I0823 22:47:39.754588  6151 net.cpp:434] pool5 <- conv5
I0823 22:47:39.754593  6151 net.cpp:408] pool5 -> pool5
I0823 22:47:39.754636  6151 net.cpp:150] Setting up pool5
I0823 22:47:39.754649  6151 net.cpp:157] Top shape: 256 256 6 6 (2359296)
I0823 22:47:39.754652  6151 net.cpp:165] Memory required for data: 1731031040
I0823 22:47:39.754654  6151 layer_factory.hpp:77] Creating layer fc6
I0823 22:47:39.754662  6151 net.cpp:100] Creating Layer fc6
I0823 22:47:39.754664  6151 net.cpp:434] fc6 <- pool5
I0823 22:47:39.754668  6151 net.cpp:408] fc6 -> fc6
I0823 22:47:40.605252  6151 net.cpp:150] Setting up fc6
I0823 22:47:40.605276  6151 net.cpp:157] Top shape: 256 4096 (1048576)
I0823 22:47:40.605279  6151 net.cpp:165] Memory required for data: 1735225344
I0823 22:47:40.605288  6151 layer_factory.hpp:77] Creating layer relu6
I0823 22:47:40.605298  6151 net.cpp:100] Creating Layer relu6
I0823 22:47:40.605300  6151 net.cpp:434] relu6 <- fc6
I0823 22:47:40.605315  6151 net.cpp:395] relu6 -> fc6 (in-place)
I0823 22:47:40.605630  6151 net.cpp:150] Setting up relu6
I0823 22:47:40.605638  6151 net.cpp:157] Top shape: 256 4096 (1048576)
I0823 22:47:40.605641  6151 net.cpp:165] Memory required for data: 1739419648
I0823 22:47:40.605643  6151 layer_factory.hpp:77] Creating layer drop6
I0823 22:47:40.605650  6151 net.cpp:100] Creating Layer drop6
I0823 22:47:40.605653  6151 net.cpp:434] drop6 <- fc6
I0823 22:47:40.605656  6151 net.cpp:395] drop6 -> fc6 (in-place)
I0823 22:47:40.605684  6151 net.cpp:150] Setting up drop6
I0823 22:47:40.605687  6151 net.cpp:157] Top shape: 256 4096 (1048576)
I0823 22:47:40.605690  6151 net.cpp:165] Memory required for data: 1743613952
I0823 22:47:40.605691  6151 layer_factory.hpp:77] Creating layer fc7
I0823 22:47:40.605698  6151 net.cpp:100] Creating Layer fc7
I0823 22:47:40.605700  6151 net.cpp:434] fc7 <- fc6
I0823 22:47:40.605705  6151 net.cpp:408] fc7 -> fc7
I0823 22:47:40.985172  6151 net.cpp:150] Setting up fc7
I0823 22:47:40.985191  6151 net.cpp:157] Top shape: 256 4096 (1048576)
I0823 22:47:40.985194  6151 net.cpp:165] Memory required for data: 1747808256
I0823 22:47:40.985201  6151 layer_factory.hpp:77] Creating layer relu7
I0823 22:47:40.985210  6151 net.cpp:100] Creating Layer relu7
I0823 22:47:40.985213  6151 net.cpp:434] relu7 <- fc7
I0823 22:47:40.985229  6151 net.cpp:395] relu7 -> fc7 (in-place)
I0823 22:47:40.985404  6151 net.cpp:150] Setting up relu7
I0823 22:47:40.985410  6151 net.cpp:157] Top shape: 256 4096 (1048576)
I0823 22:47:40.985412  6151 net.cpp:165] Memory required for data: 1752002560
I0823 22:47:40.985414  6151 layer_factory.hpp:77] Creating layer drop7
I0823 22:47:40.985421  6151 net.cpp:100] Creating Layer drop7
I0823 22:47:40.985424  6151 net.cpp:434] drop7 <- fc7
I0823 22:47:40.985427  6151 net.cpp:395] drop7 -> fc7 (in-place)
I0823 22:47:40.985466  6151 net.cpp:150] Setting up drop7
I0823 22:47:40.985471  6151 net.cpp:157] Top shape: 256 4096 (1048576)
I0823 22:47:40.985472  6151 net.cpp:165] Memory required for data: 1756196864
I0823 22:47:40.985476  6151 layer_factory.hpp:77] Creating layer fc8
I0823 22:47:40.985482  6151 net.cpp:100] Creating Layer fc8
I0823 22:47:40.985484  6151 net.cpp:434] fc8 <- fc7
I0823 22:47:40.985489  6151 net.cpp:408] fc8 -> fc8
I0823 22:47:40.986054  6151 net.cpp:150] Setting up fc8
I0823 22:47:40.986063  6151 net.cpp:157] Top shape: 256 2 (512)
I0823 22:47:40.986064  6151 net.cpp:165] Memory required for data: 1756198912
I0823 22:47:40.986068  6151 layer_factory.hpp:77] Creating layer loss
I0823 22:47:40.986073  6151 net.cpp:100] Creating Layer loss
I0823 22:47:40.986076  6151 net.cpp:434] loss <- fc8
I0823 22:47:40.986078  6151 net.cpp:434] loss <- label
I0823 22:47:40.986098  6151 net.cpp:408] loss -> loss
I0823 22:47:40.986110  6151 layer_factory.hpp:77] Creating layer loss
…
I0823 22:47:40.987103  6151 net.cpp:322] The NetState phase (1) differed from the phase (0) specified by a rule in layer data
I0823 22:47:40.987315  6151 net.cpp:58] Initializing net from parameters: 
name: "CaffeNet"
state {
  phase: TEST
}
layer {
  name: "data"
  type: "Data"
  top: "data"
  top: "label"
  include {
    phase: TEST
  }
  transform_param {
    mirror: false
    crop_size: 227
    mean_file: "/home/kaushik/code/deeplearning-cats-dogs-tutorial/input/mean.binaryproto"
  }
  data_param {
    source: "/home/kaushik/code/deeplearning-cats-dogs-tutorial/input/validation_lmdb"
    batch_size: 50
    backend: LMDB
  }
}
layer {
  name: "conv1"
  type: "Convolution"
  bottom: "data"
  top: "conv1"
  param {
    lr_mult: 1
    decay_mult: 1
  }
  param {
    lr_mult: 2
    decay_mult: 0
  }
  convolution_param {
    num_output: 96
    kernel_size: 11
    stride: 4
    weight_filler {
      type: "gaussian"
      std: 0.01
    }
    bias_filler {
      type: "constant"
      value: 0
    }
  }
}
layer {
  name: "relu1"
  type: "ReLU"
  bottom: "conv1"
  top: "conv1"
}
layer {
  name: "pool1"
  type: "Pooling"
  bottom: "conv1"
  top: "pool1"
  pooling_param {
    pool: MAX
    kernel_size: 3
    stride: 2
  }
}
layer {
  name: "norm1"
  type: "LRN"
  bottom: "pool1"
  top: "norm1"
  lrn_param {
    local_size: 5
    alpha: 0.0001
    beta: 0.75
  }
}
layer {
  name: "conv2"
  type: "Convolution"
  bottom: "norm1"
  top: "conv2"
  param {
    lr_mult: 1
    decay_mult: 1
  }
  param {
    lr_mult: 2
    decay_mult: 0
  }
  convolution_param {
    num_output: 256
    pad: 2
    kernel_size: 5
    group: 2
    weight_filler {
      type: "gaussian"
      std: 0.01
    }
    bias_filler {
      type: "constant"
      value: 1
    }
  }
}
layer {
  name: "relu2"
  type: "ReLU"
  bottom: "conv2"
  top: "conv2"
}
layer {
  name: "pool2"
  type: "Pooling"
  bottom: "conv2"
  top: "pool2"
  pooling_param {
    pool: MAX
    kernel_size: 3
    stride: 2
  }
}
layer {
  name: "norm2"
  type: "LRN"
  bottom: "pool2"
  top: "norm2"
  lrn_param {
    local_size: 5
    alpha: 0.0001
    beta: 0.75
  }
}
layer {
  name: "conv3"
  type: "Convolution"
  bottom: "norm2"
  top: "conv3"
  param {
    lr_mult: 1
    decay_mult: 1
  }
  param {
    lr_mult: 2
    decay_mult: 0
  }
  convolution_param {
    num_output: 384
    pad: 1
    kernel_size: 3
    weight_filler {
      type: "gaussian"
      std: 0.01
    }
    bias_filler {
      type: "constant"
      value: 0
    }
  }
}
layer {
  name: "relu3"
  type: "ReLU"
  bottom: "conv3"
  top: "conv3"
}
layer {
  name: "conv4"
  type: "Convolution"
  bottom: "conv3"
  top: "conv4"
  param {
    lr_mult: 1
    decay_mult: 1
  }
  param {
    lr_mult: 2
    decay_mult: 0
  }
  convolution_param {
    num_output: 384
    pad: 1
    kernel_size: 3
    group: 2
    weight_filler {
      type: "gaussian"
      std: 0.01
    }
    bias_filler {
      type: "constant"
      value: 1
    }
  }
}
layer {
  name: "relu4"
  type: "ReLU"
  bottom: "conv4"
  top: "conv4"
}
layer {
  name: "conv5"
  type: "Convolution"
  bottom: "conv4"
  top: "conv5"
  param {
    lr_mult: 1
    decay_mult: 1
  }
  param {
    lr_mult: 2
    decay_mult: 0
  }
  convolution_param {
    num_output: 256
    pad: 1
    kernel_size: 3
    group: 2
    weight_filler {
      type: "gaussian"
      std: 0.01
    }
    bias_filler {
      type: "constant"
      value: 1
    }
  }
}
layer {
  name: "relu5"
  type: "ReLU"
  bottom: "conv5"
  top: "conv5"
}
layer {
  name: "pool5"
  type: "Pooling"
  bottom: "conv5"
  top: "pool5"
  pooling_param {
    pool: MAX
    kernel_size: 3
    stride: 2
  }
}
layer {
  name: "fc6"
  type: "InnerProduct"
  bottom: "pool5"
  top: "fc6"
  param {
    lr_mult: 1
    decay_mult: 1
  }
  param {
    lr_mult: 2
    decay_mult: 0
  }
  inner_product_param {
    num_output: 4096
    weight_filler {
      type: "gaussian"
      std: 0.005
    }
    bias_filler {
      type: "constant"
      value: 1
    }
  }
}
layer {
  name: "relu6"
  type: "ReLU"
  bottom: "fc6"
  top: "fc6"
}
layer {
  name: "drop6"
  type: "Dropout"
  bottom: "fc6"
  top: "fc6"
  dropout_param {
    dropout_ratio: 0.5
  }
}
layer {
  name: "fc7"
  type: "InnerProduct"
  bottom: "fc6"
  top: "fc7"
  param {
    lr_mult: 1
    decay_mult: 1
  }
  param {
    lr_mult: 2
    decay_mult: 0
  }
  inner_product_param {
    num_output: 4096
    weight_filler {
      type: "gaussian"
      std: 0.005
    }
    bias_filler {
      type: "constant"
      value: 1
    }
  }
}
layer {
  name: "relu7"
  type: "ReLU"
  bottom: "fc7"
  top: "fc7"
}
layer {
  name: "drop7"
  type: "Dropout"
  bottom: "fc7"
  top: "fc7"
  dropout_param {
    dropout_ratio: 0.5
  }
}
layer {
  name: "fc8"
  type: "InnerProduct"
  bottom: "fc7"
  top: "fc8"
  param {
    lr_mult: 1
    decay_mult: 1
  }
  param {
    lr_mult: 2
    decay_mult: 0
  }
  inner_product_param {
    num_output: 2
    weight_filler {
      type: "gaussian"
      std: 0.01
    }
    bias_filler {
      type: "constant"
      value: 0
    }
  }
}
layer {
  name: "accuracy"
  type: "Accuracy"
  bottom: "fc8"
  bottom: "label"
  top: "accuracy"
  include {
    phase: TEST
  }
}
layer {
  name: "loss"
  type: "SoftmaxWithLoss"
  bottom: "fc8"
  bottom: "label"
  top: "loss"
}
I0823 22:47:40.987409  6151 layer_factory.hpp:77] Creating layer data
I0823 22:47:40.987480  6151 net.cpp:100] Creating Layer data
I0823 22:47:40.987485  6151 net.cpp:408] data -> data
I0823 22:47:40.987493  6151 net.cpp:408] data -> label
I0823 22:47:40.987498  6151 data_transformer.cpp:25] Loading mean file from: /home/kaushik/code/deeplearning-cats-dogs-tutorial/input/mean.binaryproto
I0823 22:47:40.988059  6166 db_lmdb.cpp:35] Opened lmdb /home/kaushik/code/deeplearning-cats-dogs-tutorial/input/validation_lmdb
I0823 22:47:40.988790  6151 data_layer.cpp:41] output data size: 50,3,227,227
I0823 22:47:41.024651  6151 net.cpp:150] Setting up data
I0823 22:47:41.024680  6151 net.cpp:157] Top shape: 50 3 227 227 (7729350)
I0823 22:47:41.024687  6151 net.cpp:157] Top shape: 50 (50)
I0823 22:47:41.024688  6151 net.cpp:165] Memory required for data: 30917600
I0823 22:47:41.024693  6151 layer_factory.hpp:77] Creating layer label_data_1_split
I0823 22:47:41.024714  6151 net.cpp:100] Creating Layer label_data_1_split
I0823 22:47:41.024718  6151 net.cpp:434] label_data_1_split <- label
I0823 22:47:41.024724  6151 net.cpp:408] label_data_1_split -> label_data_1_split_0
I0823 22:47:41.024731  6151 net.cpp:408] label_data_1_split -> label_data_1_split_1
I0823 22:47:41.024797  6151 net.cpp:150] Setting up label_data_1_split
I0823 22:47:41.024802  6151 net.cpp:157] Top shape: 50 (50)
I0823 22:47:41.024816  6151 net.cpp:157] Top shape: 50 (50)
I0823 22:47:41.024817  6151 net.cpp:165] Memory required for data: 30918000
I0823 22:47:41.024821  6151 layer_factory.hpp:77] Creating layer conv1
I0823 22:47:41.024840  6151 net.cpp:100] Creating Layer conv1
I0823 22:47:41.024842  6151 net.cpp:434] conv1 <- data
I0823 22:47:41.024847  6151 net.cpp:408] conv1 -> conv1
I0823 22:47:41.028863  6151 net.cpp:150] Setting up conv1
I0823 22:47:41.028883  6151 net.cpp:157] Top shape: 50 96 55 55 (14520000)
I0823 22:47:41.028887  6151 net.cpp:165] Memory required for data: 88998000
I0823 22:47:41.028895  6151 layer_factory.hpp:77] Creating layer relu1
I0823 22:47:41.028911  6151 net.cpp:100] Creating Layer relu1
I0823 22:47:41.028913  6151 net.cpp:434] relu1 <- conv1
I0823 22:47:41.028918  6151 net.cpp:395] relu1 -> conv1 (in-place)
I0823 22:47:41.029050  6151 net.cpp:150] Setting up relu1
I0823 22:47:41.029057  6151 net.cpp:157] Top shape: 50 96 55 55 (14520000)
I0823 22:47:41.029069  6151 net.cpp:165] Memory required for data: 147078000
I0823 22:47:41.029072  6151 layer_factory.hpp:77] Creating layer pool1
I0823 22:47:41.029078  6151 net.cpp:100] Creating Layer pool1
I0823 22:47:41.029079  6151 net.cpp:434] pool1 <- conv1
I0823 22:47:41.029093  6151 net.cpp:408] pool1 -> pool1
I0823 22:47:41.029124  6151 net.cpp:150] Setting up pool1
I0823 22:47:41.029129  6151 net.cpp:157] Top shape: 50 96 27 27 (3499200)
I0823 22:47:41.029130  6151 net.cpp:165] Memory required for data: 161074800
I0823 22:47:41.029142  6151 layer_factory.hpp:77] Creating layer norm1
I0823 22:47:41.029147  6151 net.cpp:100] Creating Layer norm1
I0823 22:47:41.029150  6151 net.cpp:434] norm1 <- pool1
I0823 22:47:41.029163  6151 net.cpp:408] norm1 -> norm1
I0823 22:47:41.029404  6151 net.cpp:150] Setting up norm1
I0823 22:47:41.029412  6151 net.cpp:157] Top shape: 50 96 27 27 (3499200)
I0823 22:47:41.029425  6151 net.cpp:165] Memory required for data: 175071600
I0823 22:47:41.029428  6151 layer_factory.hpp:77] Creating layer conv2
I0823 22:47:41.029434  6151 net.cpp:100] Creating Layer conv2
I0823 22:47:41.029438  6151 net.cpp:434] conv2 <- norm1
I0823 22:47:41.029453  6151 net.cpp:408] conv2 -> conv2
I0823 22:47:41.038091  6151 net.cpp:150] Setting up conv2
I0823 22:47:41.038125  6151 net.cpp:157] Top shape: 50 256 27 27 (9331200)
I0823 22:47:41.038128  6151 net.cpp:165] Memory required for data: 212396400
I0823 22:47:41.038143  6151 layer_factory.hpp:77] Creating layer relu2
I0823 22:47:41.038166  6151 net.cpp:100] Creating Layer relu2
I0823 22:47:41.038172  6151 net.cpp:434] relu2 <- conv2
I0823 22:47:41.038178  6151 net.cpp:395] relu2 -> conv2 (in-place)
I0823 22:47:41.038431  6151 net.cpp:150] Setting up relu2
I0823 22:47:41.038440  6151 net.cpp:157] Top shape: 50 256 27 27 (9331200)
I0823 22:47:41.038452  6151 net.cpp:165] Memory required for data: 249721200
I0823 22:47:41.038455  6151 layer_factory.hpp:77] Creating layer pool2
I0823 22:47:41.038462  6151 net.cpp:100] Creating Layer pool2
I0823 22:47:41.038465  6151 net.cpp:434] pool2 <- conv2
I0823 22:47:41.038480  6151 net.cpp:408] pool2 -> pool2
I0823 22:47:41.038513  6151 net.cpp:150] Setting up pool2
I0823 22:47:41.038528  6151 net.cpp:157] Top shape: 50 256 13 13 (2163200)
I0823 22:47:41.038530  6151 net.cpp:165] Memory required for data: 258374000
I0823 22:47:41.038532  6151 layer_factory.hpp:77] Creating layer norm2
I0823 22:47:41.038548  6151 net.cpp:100] Creating Layer norm2
I0823 22:47:41.038550  6151 net.cpp:434] norm2 <- pool2
I0823 22:47:41.038554  6151 net.cpp:408] norm2 -> norm2
I0823 22:47:41.038791  6151 net.cpp:150] Setting up norm2
I0823 22:47:41.038800  6151 net.cpp:157] Top shape: 50 256 13 13 (2163200)
I0823 22:47:41.038811  6151 net.cpp:165] Memory required for data: 267026800
I0823 22:47:41.038815  6151 layer_factory.hpp:77] Creating layer conv3
I0823 22:47:41.038822  6151 net.cpp:100] Creating Layer conv3
I0823 22:47:41.038825  6151 net.cpp:434] conv3 <- norm2
I0823 22:47:41.038830  6151 net.cpp:408] conv3 -> conv3
I0823 22:47:41.060853  6151 net.cpp:150] Setting up conv3
I0823 22:47:41.060883  6151 net.cpp:157] Top shape: 50 384 13 13 (3244800)
I0823 22:47:41.060886  6151 net.cpp:165] Memory required for data: 280006000
I0823 22:47:41.060897  6151 layer_factory.hpp:77] Creating layer relu3
I0823 22:47:41.060904  6151 net.cpp:100] Creating Layer relu3
I0823 22:47:41.060919  6151 net.cpp:434] relu3 <- conv3
I0823 22:47:41.060923  6151 net.cpp:395] relu3 -> conv3 (in-place)
I0823 22:47:41.061147  6151 net.cpp:150] Setting up relu3
I0823 22:47:41.061156  6151 net.cpp:157] Top shape: 50 384 13 13 (3244800)
I0823 22:47:41.061168  6151 net.cpp:165] Memory required for data: 292985200
I0823 22:47:41.061170  6151 layer_factory.hpp:77] Creating layer conv4
I0823 22:47:41.061179  6151 net.cpp:100] Creating Layer conv4
I0823 22:47:41.061182  6151 net.cpp:434] conv4 <- conv3
I0823 22:47:41.061197  6151 net.cpp:408] conv4 -> conv4
I0823 22:47:41.078640  6151 net.cpp:150] Setting up conv4
I0823 22:47:41.078670  6151 net.cpp:157] Top shape: 50 384 13 13 (3244800)
I0823 22:47:41.078672  6151 net.cpp:165] Memory required for data: 305964400
I0823 22:47:41.078680  6151 layer_factory.hpp:77] Creating layer relu4
I0823 22:47:41.078697  6151 net.cpp:100] Creating Layer relu4
I0823 22:47:41.078701  6151 net.cpp:434] relu4 <- conv4
I0823 22:47:41.078706  6151 net.cpp:395] relu4 -> conv4 (in-place)
I0823 22:47:41.079102  6151 net.cpp:150] Setting up relu4
I0823 22:47:41.079110  6151 net.cpp:157] Top shape: 50 384 13 13 (3244800)
I0823 22:47:41.079113  6151 net.cpp:165] Memory required for data: 318943600
I0823 22:47:41.079116  6151 layer_factory.hpp:77] Creating layer conv5
I0823 22:47:41.079136  6151 net.cpp:100] Creating Layer conv5
I0823 22:47:41.079139  6151 net.cpp:434] conv5 <- conv4
I0823 22:47:41.079144  6151 net.cpp:408] conv5 -> conv5
I0823 22:47:41.091011  6151 net.cpp:150] Setting up conv5
I0823 22:47:41.091037  6151 net.cpp:157] Top shape: 50 256 13 13 (2163200)
I0823 22:47:41.091040  6151 net.cpp:165] Memory required for data: 327596400
I0823 22:47:41.091056  6151 layer_factory.hpp:77] Creating layer relu5
I0823 22:47:41.091068  6151 net.cpp:100] Creating Layer relu5
I0823 22:47:41.091073  6151 net.cpp:434] relu5 <- conv5
I0823 22:47:41.091107  6151 net.cpp:395] relu5 -> conv5 (in-place)
I0823 22:47:41.091241  6151 net.cpp:150] Setting up relu5
I0823 22:47:41.091251  6151 net.cpp:157] Top shape: 50 256 13 13 (2163200)
I0823 22:47:41.091255  6151 net.cpp:165] Memory required for data: 336249200
I0823 22:47:41.091259  6151 layer_factory.hpp:77] Creating layer pool5
I0823 22:47:41.091270  6151 net.cpp:100] Creating Layer pool5
I0823 22:47:41.091274  6151 net.cpp:434] pool5 <- conv5
I0823 22:47:41.091281  6151 net.cpp:408] pool5 -> pool5
I0823 22:47:41.091333  6151 net.cpp:150] Setting up pool5
I0823 22:47:41.091341  6151 net.cpp:157] Top shape: 50 256 6 6 (460800)
I0823 22:47:41.091344  6151 net.cpp:165] Memory required for data: 338092400
I0823 22:47:41.091358  6151 layer_factory.hpp:77] Creating layer fc6
I0823 22:47:41.091367  6151 net.cpp:100] Creating Layer fc6
I0823 22:47:41.091372  6151 net.cpp:434] fc6 <- pool5
I0823 22:47:41.091379  6151 net.cpp:408] fc6 -> fc6
I0823 22:47:41.944794  6151 net.cpp:150] Setting up fc6
I0823 22:47:41.944818  6151 net.cpp:157] Top shape: 50 4096 (204800)
I0823 22:47:41.944823  6151 net.cpp:165] Memory required for data: 338911600
I0823 22:47:41.944833  6151 layer_factory.hpp:77] Creating layer relu6
I0823 22:47:41.944844  6151 net.cpp:100] Creating Layer relu6
I0823 22:47:41.944849  6151 net.cpp:434] relu6 <- fc6
I0823 22:47:41.944857  6151 net.cpp:395] relu6 -> fc6 (in-place)
I0823 22:47:41.945163  6151 net.cpp:150] Setting up relu6
I0823 22:47:41.945173  6151 net.cpp:157] Top shape: 50 4096 (204800)
I0823 22:47:41.945178  6151 net.cpp:165] Memory required for data: 339730800
I0823 22:47:41.945183  6151 layer_factory.hpp:77] Creating layer drop6
I0823 22:47:41.945190  6151 net.cpp:100] Creating Layer drop6
I0823 22:47:41.945194  6151 net.cpp:434] drop6 <- fc6
I0823 22:47:41.945200  6151 net.cpp:395] drop6 -> fc6 (in-place)
I0823 22:47:41.945230  6151 net.cpp:150] Setting up drop6
I0823 22:47:41.945236  6151 net.cpp:157] Top shape: 50 4096 (204800)
I0823 22:47:41.945240  6151 net.cpp:165] Memory required for data: 340550000
I0823 22:47:41.945245  6151 layer_factory.hpp:77] Creating layer fc7
I0823 22:47:41.945255  6151 net.cpp:100] Creating Layer fc7
I0823 22:47:41.945258  6151 net.cpp:434] fc7 <- fc6
I0823 22:47:41.945266  6151 net.cpp:408] fc7 -> fc7
I0823 22:47:42.325407  6151 net.cpp:150] Setting up fc7
I0823 22:47:42.325429  6151 net.cpp:157] Top shape: 50 4096 (204800)
I0823 22:47:42.325433  6151 net.cpp:165] Memory required for data: 341369200
I0823 22:47:42.325443  6151 layer_factory.hpp:77] Creating layer relu7
I0823 22:47:42.325454  6151 net.cpp:100] Creating Layer relu7
I0823 22:47:42.325460  6151 net.cpp:434] relu7 <- fc7
I0823 22:47:42.325469  6151 net.cpp:395] relu7 -> fc7 (in-place)
I0823 22:47:42.325639  6151 net.cpp:150] Setting up relu7
I0823 22:47:42.325649  6151 net.cpp:157] Top shape: 50 4096 (204800)
I0823 22:47:42.325652  6151 net.cpp:165] Memory required for data: 342188400
I0823 22:47:42.325656  6151 layer_factory.hpp:77] Creating layer drop7
I0823 22:47:42.325664  6151 net.cpp:100] Creating Layer drop7
I0823 22:47:42.325669  6151 net.cpp:434] drop7 <- fc7
I0823 22:47:42.325675  6151 net.cpp:395] drop7 -> fc7 (in-place)
I0823 22:47:42.325702  6151 net.cpp:150] Setting up drop7
I0823 22:47:42.325709  6151 net.cpp:157] Top shape: 50 4096 (204800)
I0823 22:47:42.325713  6151 net.cpp:165] Memory required for data: 343007600
I0823 22:47:42.325717  6151 layer_factory.hpp:77] Creating layer fc8
I0823 22:47:42.325726  6151 net.cpp:100] Creating Layer fc8
I0823 22:47:42.325731  6151 net.cpp:434] fc8 <- fc7
I0823 22:47:42.325737  6151 net.cpp:408] fc8 -> fc8
I0823 22:47:42.326002  6151 net.cpp:150] Setting up fc8
I0823 22:47:42.326011  6151 net.cpp:157] Top shape: 50 2 (100)
I0823 22:47:42.326015  6151 net.cpp:165] Memory required for data: 343008000
I0823 22:47:42.326022  6151 layer_factory.hpp:77] Creating layer fc8_fc8_0_split
I0823 22:47:42.326030  6151 net.cpp:100] Creating Layer fc8_fc8_0_split
I0823 22:47:42.326033  6151 net.cpp:434] fc8_fc8_0_split <- fc8
I0823 22:47:42.326040  6151 net.cpp:408] fc8_fc8_0_split -> fc8_fc8_0_split_0
I0823 22:47:42.326063  6151 net.cpp:408] fc8_fc8_0_split -> fc8_fc8_0_split_1
I0823 22:47:42.326098  6151 net.cpp:150] Setting up fc8_fc8_0_split
I0823 22:47:42.326107  6151 net.cpp:157] Top shape: 50 2 (100)
I0823 22:47:42.326110  6151 net.cpp:157] Top shape: 50 2 (100)
I0823 22:47:42.326114  6151 net.cpp:165] Memory required for data: 343008800
I0823 22:47:42.326118  6151 layer_factory.hpp:77] Creating layer accuracy
I0823 22:47:42.326125  6151 net.cpp:100] Creating Layer accuracy
I0823 22:47:42.326130  6151 net.cpp:434] accuracy <- fc8_fc8_0_split_0
I0823 22:47:42.326135  6151 net.cpp:434] accuracy <- label_data_1_split_0
I0823 22:47:42.326141  6151 net.cpp:408] accuracy -> accuracy
…
