…
I0824 02:34:50.776593  8161 net.cpp:322] The NetState phase (0) differed from the phase (1) specified by a rule in layer accuracy
I0824 02:34:50.776793  8161 net.cpp:58] Initializing net from parameters: 
name: "CaffeNet"
state {
  phase: TRAIN
  level: 0
  stage: ""
}
layer {
  name: "data"
  type: "Data"
  top: "data"
  top: "label"
  include {
    phase: TRAIN
  }
  transform_param {
    mirror: true
    crop_size: 227
    mean_file: "/home/kaushik/code/deeplearning-cats-dogs-tutorial/input/mean.binaryproto"
  }
  data_param {
    source: "/home/kaushik/code/deeplearning-cats-dogs-tutorial/input/train_lmdb"
    batch_size: 256
    backend: LMDB
  }
}
layer {
  name: "conv1"
  type: "Convolution"
  bottom: "data"
  top: "conv1"
  param {
    lr_mult: 1
    decay_mult: 1
  }
  param {
    lr_mult: 2
    decay_mult: 0
  }
  convolution_param {
    num_output: 96
    kernel_size: 11
    stride: 4
    weight_filler {
      type: "gaussian"
      std: 0.01
    }
    bias_filler {
      type: "constant"
      value: 0
    }
  }
}
layer {
  name: "relu1"
  type: "ReLU"
  bottom: "conv1"
  top: "conv1"
}
layer {
  name: "pool1"
  type: "Pooling"
  bottom: "conv1"
  top: "pool1"
  pooling_param {
    pool: MAX
    kernel_size: 3
    stride: 2
  }
}
layer {
  name: "norm1"
  type: "LRN"
  bottom: "pool1"
  top: "norm1"
  lrn_param {
    local_size: 5
    alpha: 0.0001
    beta: 0.75
  }
}
layer {
  name: "conv2"
  type: "Convolution"
  bottom: "norm1"
  top: "conv2"
  param {
    lr_mult: 1
    decay_mult: 1
  }
  param {
    lr_mult: 2
    decay_mult: 0
  }
  convolution_param {
    num_output: 256
    pad: 2
    kernel_size: 5
    group: 2
    weight_filler {
      type: "gaussian"
      std: 0.01
    }
    bias_filler {
      type: "constant"
      value: 1
    }
  }
}
layer {
  name: "relu2"
  type: "ReLU"
  bottom: "conv2"
  top: "conv2"
}
layer {
  name: "pool2"
  type: "Pooling"
  bottom: "conv2"
  top: "pool2"
  pooling_param {
    pool: MAX
    kernel_size: 3
    stride: 2
  }
}
layer {
  name: "norm2"
  type: "LRN"
  bottom: "pool2"
  top: "norm2"
  lrn_param {
    local_size: 5
    alpha: 0.0001
    beta: 0.75
  }
}
layer {
  name: "conv3"
  type: "Convolution"
  bottom: "norm2"
  top: "conv3"
  param {
    lr_mult: 1
    decay_mult: 1
  }
  param {
    lr_mult: 2
    decay_mult: 0
  }
  convolution_param {
    num_output: 384
    pad: 1
    kernel_size: 3
    weight_filler {
      type: "gaussian"
      std: 0.01
    }
    bias_filler {
      type: "constant"
      value: 0
    }
  }
}
layer {
  name: "relu3"
  type: "ReLU"
  bottom: "conv3"
  top: "conv3"
}
layer {
  name: "conv4"
  type: "Convolution"
  bottom: "conv3"
  top: "conv4"
  param {
    lr_mult: 1
    decay_mult: 1
  }
  param {
    lr_mult: 2
    decay_mult: 0
  }
  convolution_param {
    num_output: 384
    pad: 1
    kernel_size: 3
    group: 2
    weight_filler {
      type: "gaussian"
      std: 0.01
    }
    bias_filler {
      type: "constant"
      value: 1
    }
  }
}
layer {
  name: "relu4"
  type: "ReLU"
  bottom: "conv4"
  top: "conv4"
}
layer {
  name: "conv5"
  type: "Convolution"
  bottom: "conv4"
  top: "conv5"
  param {
    lr_mult: 1
    decay_mult: 1
  }
  param {
    lr_mult: 2
    decay_mult: 0
  }
  convolution_param {
    num_output: 256
    pad: 1
    kernel_size: 3
    group: 2
    weight_filler {
      type: "gaussian"
      std: 0.01
    }
    bias_filler {
      type: "constant"
      value: 1
    }
  }
}
layer {
  name: "relu5"
  type: "ReLU"
  bottom: "conv5"
  top: "conv5"
}
layer {
  name: "pool5"
  type: "Pooling"
  bottom: "conv5"
  top: "pool5"
  pooling_param {
    pool: MAX
    kernel_size: 3
    stride: 2
  }
}
layer {
  name: "fc6"
  type: "InnerProduct"
  bottom: "pool5"
  top: "fc6"
  param {
    lr_mult: 1
    decay_mult: 1
  }
  param {
    lr_mult: 2
    decay_mult: 0
  }
  inner_product_param {
    num_output: 4096
    weight_filler {
      type: "gaussian"
      std: 0.005
    }
    bias_filler {
      type: "constant"
      value: 1
    }
  }
}
layer {
  name: "relu6"
  type: "ReLU"
  bottom: "fc6"
  top: "fc6"
}
layer {
  name: "drop6"
  type: "Dropout"
  bottom: "fc6"
  top: "fc6"
  dropout_param {
    dropout_ratio: 0.5
  }
}
layer {
  name: "fc7"
  type: "InnerProduct"
  bottom: "fc6"
  top: "fc7"
  param {
    lr_mult: 1
    decay_mult: 1
  }
  param {
    lr_mult: 2
    decay_mult: 0
  }
  inner_product_param {
    num_output: 4096
    weight_filler {
      type: "gaussian"
      std: 0.005
    }
    bias_filler {
      type: "constant"
      value: 1
    }
  }
}
layer {
  name: "relu7"
  type: "ReLU"
  bottom: "fc7"
  top: "fc7"
}
layer {
  name: "drop7"
  type: "Dropout"
  bottom: "fc7"
  top: "fc7"
  dropout_param {
    dropout_ratio: 0.5
  }
}
layer {
  name: "fc8-cats-dogs"
  type: "InnerProduct"
  bottom: "fc7"
  top: "fc8-cats-dogs"
  param {
    lr_mult: 1
    decay_mult: 1
  }
  param {
    lr_mult: 2
    decay_mult: 0
  }
  inner_product_param {
    num_output: 2
    weight_filler {
      type: "gaussian"
      std: 0.01
    }
    bias_filler {
      type: "constant"
      value: 0
    }
  }
}
layer {
  name: "loss"
  type: "SoftmaxWithLoss"
  bottom: "fc8-cats-dogs"
  bottom: "label"
  top: "loss"
}
I0824 02:34:50.776890  8161 layer_factory.hpp:77] Creating layer data
I0824 02:34:50.777338  8161 net.cpp:100] Creating Layer data
I0824 02:34:50.777355  8161 net.cpp:408] data -> data
I0824 02:34:50.777374  8161 net.cpp:408] data -> label
I0824 02:34:50.777382  8161 data_transformer.cpp:25] Loading mean file from: /home/kaushik/code/deeplearning-cats-dogs-tutorial/input/mean.binaryproto
I0824 02:34:50.777909  8174 db_lmdb.cpp:35] Opened lmdb /home/kaushik/code/deeplearning-cats-dogs-tutorial/input/train_lmdb
I0824 02:34:50.786468  8161 data_layer.cpp:41] output data size: 256,3,227,227
I0824 02:34:50.959336  8161 net.cpp:150] Setting up data
I0824 02:34:50.959359  8161 net.cpp:157] Top shape: 256 3 227 227 (39574272)
I0824 02:34:50.959363  8161 net.cpp:157] Top shape: 256 (256)
I0824 02:34:50.959365  8161 net.cpp:165] Memory required for data: 158298112
I0824 02:34:50.959383  8161 layer_factory.hpp:77] Creating layer conv1
I0824 02:34:50.959406  8161 net.cpp:100] Creating Layer conv1
I0824 02:34:50.959410  8161 net.cpp:434] conv1 <- data
I0824 02:34:50.959421  8161 net.cpp:408] conv1 -> conv1
I0824 02:34:51.087401  8161 net.cpp:150] Setting up conv1
I0824 02:34:51.087426  8161 net.cpp:157] Top shape: 256 96 55 55 (74342400)
I0824 02:34:51.087430  8161 net.cpp:165] Memory required for data: 455667712
I0824 02:34:51.087455  8161 layer_factory.hpp:77] Creating layer relu1
I0824 02:34:51.087466  8161 net.cpp:100] Creating Layer relu1
I0824 02:34:51.087469  8161 net.cpp:434] relu1 <- conv1
I0824 02:34:51.087476  8161 net.cpp:395] relu1 -> conv1 (in-place)
I0824 02:34:51.087718  8161 net.cpp:150] Setting up relu1
I0824 02:34:51.087726  8161 net.cpp:157] Top shape: 256 96 55 55 (74342400)
I0824 02:34:51.087729  8161 net.cpp:165] Memory required for data: 753037312
I0824 02:34:51.087731  8161 layer_factory.hpp:77] Creating layer pool1
I0824 02:34:51.087749  8161 net.cpp:100] Creating Layer pool1
I0824 02:34:51.087751  8161 net.cpp:434] pool1 <- conv1
I0824 02:34:51.087755  8161 net.cpp:408] pool1 -> pool1
I0824 02:34:51.087819  8161 net.cpp:150] Setting up pool1
I0824 02:34:51.087824  8161 net.cpp:157] Top shape: 256 96 27 27 (17915904)
I0824 02:34:51.087826  8161 net.cpp:165] Memory required for data: 824700928
I0824 02:34:51.087828  8161 layer_factory.hpp:77] Creating layer norm1
I0824 02:34:51.087847  8161 net.cpp:100] Creating Layer norm1
I0824 02:34:51.087849  8161 net.cpp:434] norm1 <- pool1
I0824 02:34:51.087852  8161 net.cpp:408] norm1 -> norm1
I0824 02:34:51.087997  8161 net.cpp:150] Setting up norm1
I0824 02:34:51.088006  8161 net.cpp:157] Top shape: 256 96 27 27 (17915904)
I0824 02:34:51.088007  8161 net.cpp:165] Memory required for data: 896364544
I0824 02:34:51.088011  8161 layer_factory.hpp:77] Creating layer conv2
I0824 02:34:51.088030  8161 net.cpp:100] Creating Layer conv2
I0824 02:34:51.088033  8161 net.cpp:434] conv2 <- norm1
I0824 02:34:51.088037  8161 net.cpp:408] conv2 -> conv2
I0824 02:34:51.097105  8161 net.cpp:150] Setting up conv2
I0824 02:34:51.097126  8161 net.cpp:157] Top shape: 256 256 27 27 (47775744)
I0824 02:34:51.097128  8161 net.cpp:165] Memory required for data: 1087467520
I0824 02:34:51.097149  8161 layer_factory.hpp:77] Creating layer relu2
I0824 02:34:51.097160  8161 net.cpp:100] Creating Layer relu2
I0824 02:34:51.097165  8161 net.cpp:434] relu2 <- conv2
I0824 02:34:51.097170  8161 net.cpp:395] relu2 -> conv2 (in-place)
I0824 02:34:51.097306  8161 net.cpp:150] Setting up relu2
I0824 02:34:51.097313  8161 net.cpp:157] Top shape: 256 256 27 27 (47775744)
I0824 02:34:51.097316  8161 net.cpp:165] Memory required for data: 1278570496
I0824 02:34:51.097317  8161 layer_factory.hpp:77] Creating layer pool2
I0824 02:34:51.097333  8161 net.cpp:100] Creating Layer pool2
I0824 02:34:51.097335  8161 net.cpp:434] pool2 <- conv2
I0824 02:34:51.097340  8161 net.cpp:408] pool2 -> pool2
I0824 02:34:51.097379  8161 net.cpp:150] Setting up pool2
I0824 02:34:51.097383  8161 net.cpp:157] Top shape: 256 256 13 13 (11075584)
I0824 02:34:51.097385  8161 net.cpp:165] Memory required for data: 1322872832
I0824 02:34:51.097388  8161 layer_factory.hpp:77] Creating layer norm2
I0824 02:34:51.097405  8161 net.cpp:100] Creating Layer norm2
I0824 02:34:51.097407  8161 net.cpp:434] norm2 <- pool2
I0824 02:34:51.097411  8161 net.cpp:408] norm2 -> norm2
I0824 02:34:51.097640  8161 net.cpp:150] Setting up norm2
I0824 02:34:51.097647  8161 net.cpp:157] Top shape: 256 256 13 13 (11075584)
I0824 02:34:51.097651  8161 net.cpp:165] Memory required for data: 1367175168
I0824 02:34:51.097652  8161 layer_factory.hpp:77] Creating layer conv3
I0824 02:34:51.097672  8161 net.cpp:100] Creating Layer conv3
I0824 02:34:51.097674  8161 net.cpp:434] conv3 <- norm2
I0824 02:34:51.097681  8161 net.cpp:408] conv3 -> conv3
I0824 02:34:51.121245  8161 net.cpp:150] Setting up conv3
I0824 02:34:51.121266  8161 net.cpp:157] Top shape: 256 384 13 13 (16613376)
I0824 02:34:51.121268  8161 net.cpp:165] Memory required for data: 1433628672
I0824 02:34:51.121290  8161 layer_factory.hpp:77] Creating layer relu3
I0824 02:34:51.121297  8161 net.cpp:100] Creating Layer relu3
I0824 02:34:51.121301  8161 net.cpp:434] relu3 <- conv3
I0824 02:34:51.121305  8161 net.cpp:395] relu3 -> conv3 (in-place)
I0824 02:34:51.121438  8161 net.cpp:150] Setting up relu3
I0824 02:34:51.121444  8161 net.cpp:157] Top shape: 256 384 13 13 (16613376)
I0824 02:34:51.121446  8161 net.cpp:165] Memory required for data: 1500082176
I0824 02:34:51.121449  8161 layer_factory.hpp:77] Creating layer conv4
I0824 02:34:51.121469  8161 net.cpp:100] Creating Layer conv4
I0824 02:34:51.121472  8161 net.cpp:434] conv4 <- conv3
I0824 02:34:51.121476  8161 net.cpp:408] conv4 -> conv4
I0824 02:34:51.138248  8161 net.cpp:150] Setting up conv4
I0824 02:34:51.138270  8161 net.cpp:157] Top shape: 256 384 13 13 (16613376)
I0824 02:34:51.138273  8161 net.cpp:165] Memory required for data: 1566535680
I0824 02:34:51.138280  8161 layer_factory.hpp:77] Creating layer relu4
I0824 02:34:51.138303  8161 net.cpp:100] Creating Layer relu4
I0824 02:34:51.138306  8161 net.cpp:434] relu4 <- conv4
I0824 02:34:51.138312  8161 net.cpp:395] relu4 -> conv4 (in-place)
I0824 02:34:51.138456  8161 net.cpp:150] Setting up relu4
I0824 02:34:51.138463  8161 net.cpp:157] Top shape: 256 384 13 13 (16613376)
I0824 02:34:51.138465  8161 net.cpp:165] Memory required for data: 1632989184
I0824 02:34:51.138468  8161 layer_factory.hpp:77] Creating layer conv5
I0824 02:34:51.138489  8161 net.cpp:100] Creating Layer conv5
I0824 02:34:51.138490  8161 net.cpp:434] conv5 <- conv4
I0824 02:34:51.138496  8161 net.cpp:408] conv5 -> conv5
I0824 02:34:51.150885  8161 net.cpp:150] Setting up conv5
I0824 02:34:51.150907  8161 net.cpp:157] Top shape: 256 256 13 13 (11075584)
I0824 02:34:51.150908  8161 net.cpp:165] Memory required for data: 1677291520
I0824 02:34:51.150930  8161 layer_factory.hpp:77] Creating layer relu5
I0824 02:34:51.150938  8161 net.cpp:100] Creating Layer relu5
I0824 02:34:51.150943  8161 net.cpp:434] relu5 <- conv5
I0824 02:34:51.150946  8161 net.cpp:395] relu5 -> conv5 (in-place)
I0824 02:34:51.151073  8161 net.cpp:150] Setting up relu5
I0824 02:34:51.151079  8161 net.cpp:157] Top shape: 256 256 13 13 (11075584)
I0824 02:34:51.151082  8161 net.cpp:165] Memory required for data: 1721593856
I0824 02:34:51.151084  8161 layer_factory.hpp:77] Creating layer pool5
I0824 02:34:51.151100  8161 net.cpp:100] Creating Layer pool5
I0824 02:34:51.151103  8161 net.cpp:434] pool5 <- conv5
I0824 02:34:51.151106  8161 net.cpp:408] pool5 -> pool5
I0824 02:34:51.151149  8161 net.cpp:150] Setting up pool5
I0824 02:34:51.151154  8161 net.cpp:157] Top shape: 256 256 6 6 (2359296)
I0824 02:34:51.151155  8161 net.cpp:165] Memory required for data: 1731031040
I0824 02:34:51.151157  8161 layer_factory.hpp:77] Creating layer fc6
I0824 02:34:51.151175  8161 net.cpp:100] Creating Layer fc6
I0824 02:34:51.151177  8161 net.cpp:434] fc6 <- pool5
I0824 02:34:51.151182  8161 net.cpp:408] fc6 -> fc6
I0824 02:34:52.014775  8161 net.cpp:150] Setting up fc6
I0824 02:34:52.014797  8161 net.cpp:157] Top shape: 256 4096 (1048576)
I0824 02:34:52.014799  8161 net.cpp:165] Memory required for data: 1735225344
I0824 02:34:52.014807  8161 layer_factory.hpp:77] Creating layer relu6
I0824 02:34:52.014816  8161 net.cpp:100] Creating Layer relu6
I0824 02:34:52.014819  8161 net.cpp:434] relu6 <- fc6
I0824 02:34:52.014834  8161 net.cpp:395] relu6 -> fc6 (in-place)
I0824 02:34:52.015153  8161 net.cpp:150] Setting up relu6
I0824 02:34:52.015162  8161 net.cpp:157] Top shape: 256 4096 (1048576)
I0824 02:34:52.015164  8161 net.cpp:165] Memory required for data: 1739419648
I0824 02:34:52.015167  8161 layer_factory.hpp:77] Creating layer drop6
I0824 02:34:52.015173  8161 net.cpp:100] Creating Layer drop6
I0824 02:34:52.015175  8161 net.cpp:434] drop6 <- fc6
I0824 02:34:52.015194  8161 net.cpp:395] drop6 -> fc6 (in-place)
I0824 02:34:52.015213  8161 net.cpp:150] Setting up drop6
I0824 02:34:52.015218  8161 net.cpp:157] Top shape: 256 4096 (1048576)
I0824 02:34:52.015219  8161 net.cpp:165] Memory required for data: 1743613952
I0824 02:34:52.015221  8161 layer_factory.hpp:77] Creating layer fc7
I0824 02:34:52.015228  8161 net.cpp:100] Creating Layer fc7
I0824 02:34:52.015230  8161 net.cpp:434] fc7 <- fc6
I0824 02:34:52.015234  8161 net.cpp:408] fc7 -> fc7
I0824 02:34:52.394435  8161 net.cpp:150] Setting up fc7
I0824 02:34:52.394459  8161 net.cpp:157] Top shape: 256 4096 (1048576)
I0824 02:34:52.394460  8161 net.cpp:165] Memory required for data: 1747808256
I0824 02:34:52.394469  8161 layer_factory.hpp:77] Creating layer relu7
I0824 02:34:52.394479  8161 net.cpp:100] Creating Layer relu7
I0824 02:34:52.394481  8161 net.cpp:434] relu7 <- fc7
I0824 02:34:52.394486  8161 net.cpp:395] relu7 -> fc7 (in-place)
I0824 02:34:52.394655  8161 net.cpp:150] Setting up relu7
I0824 02:34:52.394662  8161 net.cpp:157] Top shape: 256 4096 (1048576)
I0824 02:34:52.394665  8161 net.cpp:165] Memory required for data: 1752002560
I0824 02:34:52.394667  8161 layer_factory.hpp:77] Creating layer drop7
I0824 02:34:52.394672  8161 net.cpp:100] Creating Layer drop7
I0824 02:34:52.394675  8161 net.cpp:434] drop7 <- fc7
I0824 02:34:52.394678  8161 net.cpp:395] drop7 -> fc7 (in-place)
I0824 02:34:52.394707  8161 net.cpp:150] Setting up drop7
I0824 02:34:52.394712  8161 net.cpp:157] Top shape: 256 4096 (1048576)
I0824 02:34:52.394714  8161 net.cpp:165] Memory required for data: 1756196864
I0824 02:34:52.394717  8161 layer_factory.hpp:77] Creating layer fc8-cats-dogs
I0824 02:34:52.394723  8161 net.cpp:100] Creating Layer fc8-cats-dogs
I0824 02:34:52.394726  8161 net.cpp:434] fc8-cats-dogs <- fc7
I0824 02:34:52.394731  8161 net.cpp:408] fc8-cats-dogs -> fc8-cats-dogs
I0824 02:34:52.395309  8161 net.cpp:150] Setting up fc8-cats-dogs
I0824 02:34:52.395318  8161 net.cpp:157] Top shape: 256 2 (512)
I0824 02:34:52.395320  8161 net.cpp:165] Memory required for data: 1756198912
I0824 02:34:52.395324  8161 layer_factory.hpp:77] Creating layer loss
I0824 02:34:52.395330  8161 net.cpp:100] Creating Layer loss
I0824 02:34:52.395333  8161 net.cpp:434] loss <- fc8-cats-dogs
I0824 02:34:52.395336  8161 net.cpp:434] loss <- label
I0824 02:34:52.395340  8161 net.cpp:408] loss -> loss
I0824 02:34:52.395354  8161 layer_factory.hpp:77] Creating layer loss
…
I0824 02:34:52.396366  8161 net.cpp:322] The NetState phase (1) differed from the phase (0) specified by a rule in layer data
I0824 02:34:52.396581  8161 net.cpp:58] Initializing net from parameters: 
name: "CaffeNet"
state {
  phase: TEST
}
layer {
  name: "data"
  type: "Data"
  top: "data"
  top: "label"
  include {
    phase: TEST
  }
  transform_param {
    mirror: false
    crop_size: 227
    mean_file: "/home/kaushik/code/deeplearning-cats-dogs-tutorial/input/mean.binaryproto"
  }
  data_param {
    source: "/home/kaushik/code/deeplearning-cats-dogs-tutorial/input/validation_lmdb"
    batch_size: 50
    backend: LMDB
  }
}
layer {
  name: "conv1"
  type: "Convolution"
  bottom: "data"
  top: "conv1"
  param {
    lr_mult: 1
    decay_mult: 1
  }
  param {
    lr_mult: 2
    decay_mult: 0
  }
  convolution_param {
    num_output: 96
    kernel_size: 11
    stride: 4
    weight_filler {
      type: "gaussian"
      std: 0.01
    }
    bias_filler {
      type: "constant"
      value: 0
    }
  }
}
layer {
  name: "relu1"
  type: "ReLU"
  bottom: "conv1"
  top: "conv1"
}
layer {
  name: "pool1"
  type: "Pooling"
  bottom: "conv1"
  top: "pool1"
  pooling_param {
    pool: MAX
    kernel_size: 3
    stride: 2
  }
}
layer {
  name: "norm1"
  type: "LRN"
  bottom: "pool1"
  top: "norm1"
  lrn_param {
    local_size: 5
    alpha: 0.0001
    beta: 0.75
  }
}
layer {
  name: "conv2"
  type: "Convolution"
  bottom: "norm1"
  top: "conv2"
  param {
    lr_mult: 1
    decay_mult: 1
  }
  param {
    lr_mult: 2
    decay_mult: 0
  }
  convolution_param {
    num_output: 256
    pad: 2
    kernel_size: 5
    group: 2
    weight_filler {
      type: "gaussian"
      std: 0.01
    }
    bias_filler {
      type: "constant"
      value: 1
    }
  }
}
layer {
  name: "relu2"
  type: "ReLU"
  bottom: "conv2"
  top: "conv2"
}
layer {
  name: "pool2"
  type: "Pooling"
  bottom: "conv2"
  top: "pool2"
  pooling_param {
    pool: MAX
    kernel_size: 3
    stride: 2
  }
}
layer {
  name: "norm2"
  type: "LRN"
  bottom: "pool2"
  top: "norm2"
  lrn_param {
    local_size: 5
    alpha: 0.0001
    beta: 0.75
  }
}
layer {
  name: "conv3"
  type: "Convolution"
  bottom: "norm2"
  top: "conv3"
  param {
    lr_mult: 1
    decay_mult: 1
  }
  param {
    lr_mult: 2
    decay_mult: 0
  }
  convolution_param {
    num_output: 384
    pad: 1
    kernel_size: 3
    weight_filler {
      type: "gaussian"
      std: 0.01
    }
    bias_filler {
      type: "constant"
      value: 0
    }
  }
}
layer {
  name: "relu3"
  type: "ReLU"
  bottom: "conv3"
  top: "conv3"
}
layer {
  name: "conv4"
  type: "Convolution"
  bottom: "conv3"
  top: "conv4"
  param {
    lr_mult: 1
    decay_mult: 1
  }
  param {
    lr_mult: 2
    decay_mult: 0
  }
  convolution_param {
    num_output: 384
    pad: 1
    kernel_size: 3
    group: 2
    weight_filler {
      type: "gaussian"
      std: 0.01
    }
    bias_filler {
      type: "constant"
      value: 1
    }
  }
}
layer {
  name: "relu4"
  type: "ReLU"
  bottom: "conv4"
  top: "conv4"
}
layer {
  name: "conv5"
  type: "Convolution"
  bottom: "conv4"
  top: "conv5"
  param {
    lr_mult: 1
    decay_mult: 1
  }
  param {
    lr_mult: 2
    decay_mult: 0
  }
  convolution_param {
    num_output: 256
    pad: 1
    kernel_size: 3
    group: 2
    weight_filler {
      type: "gaussian"
      std: 0.01
    }
    bias_filler {
      type: "constant"
      value: 1
    }
  }
}
layer {
  name: "relu5"
  type: "ReLU"
  bottom: "conv5"
  top: "conv5"
}
layer {
  name: "pool5"
  type: "Pooling"
  bottom: "conv5"
  top: "pool5"
  pooling_param {
    pool: MAX
    kernel_size: 3
    stride: 2
  }
}
layer {
  name: "fc6"
  type: "InnerProduct"
  bottom: "pool5"
  top: "fc6"
  param {
    lr_mult: 1
    decay_mult: 1
  }
  param {
    lr_mult: 2
    decay_mult: 0
  }
  inner_product_param {
    num_output: 4096
    weight_filler {
      type: "gaussian"
      std: 0.005
    }
    bias_filler {
      type: "constant"
      value: 1
    }
  }
}
layer {
  name: "relu6"
  type: "ReLU"
  bottom: "fc6"
  top: "fc6"
}
layer {
  name: "drop6"
  type: "Dropout"
  bottom: "fc6"
  top: "fc6"
  dropout_param {
    dropout_ratio: 0.5
  }
}
layer {
  name: "fc7"
  type: "InnerProduct"
  bottom: "fc6"
  top: "fc7"
  param {
    lr_mult: 1
    decay_mult: 1
  }
  param {
    lr_mult: 2
    decay_mult: 0
  }
  inner_product_param {
    num_output: 4096
    weight_filler {
      type: "gaussian"
      std: 0.005
    }
    bias_filler {
      type: "constant"
      value: 1
    }
  }
}
layer {
  name: "relu7"
  type: "ReLU"
  bottom: "fc7"
  top: "fc7"
}
layer {
  name: "drop7"
  type: "Dropout"
  bottom: "fc7"
  top: "fc7"
  dropout_param {
    dropout_ratio: 0.5
  }
}
layer {
  name: "fc8-cats-dogs"
  type: "InnerProduct"
  bottom: "fc7"
  top: "fc8-cats-dogs"
  param {
    lr_mult: 1
    decay_mult: 1
  }
  param {
    lr_mult: 2
    decay_mult: 0
  }
  inner_product_param {
    num_output: 2
    weight_filler {
      type: "gaussian"
      std: 0.01
    }
    bias_filler {
      type: "constant"
      value: 0
    }
  }
}
layer {
  name: "accuracy"
  type: "Accuracy"
  bottom: "fc8-cats-dogs"
  bottom: "label"
  top: "accuracy"
  include {
    phase: TEST
  }
}
layer {
  name: "loss"
  type: "SoftmaxWithLoss"
  bottom: "fc8-cats-dogs"
  bottom: "label"
  top: "loss"
}
I0824 02:34:52.396678  8161 layer_factory.hpp:77] Creating layer data
I0824 02:34:52.396752  8161 net.cpp:100] Creating Layer data
I0824 02:34:52.396759  8161 net.cpp:408] data -> data
I0824 02:34:52.396764  8161 net.cpp:408] data -> label
I0824 02:34:52.396771  8161 data_transformer.cpp:25] Loading mean file from: /home/kaushik/code/deeplearning-cats-dogs-tutorial/input/mean.binaryproto
I0824 02:34:52.397308  8176 db_lmdb.cpp:35] Opened lmdb /home/kaushik/code/deeplearning-cats-dogs-tutorial/input/validation_lmdb
I0824 02:34:52.398010  8161 data_layer.cpp:41] output data size: 50,3,227,227
I0824 02:34:52.433323  8161 net.cpp:150] Setting up data
I0824 02:34:52.433353  8161 net.cpp:157] Top shape: 50 3 227 227 (7729350)
I0824 02:34:52.433358  8161 net.cpp:157] Top shape: 50 (50)
I0824 02:34:52.433360  8161 net.cpp:165] Memory required for data: 30917600
I0824 02:34:52.433367  8161 layer_factory.hpp:77] Creating layer label_data_1_split
I0824 02:34:52.433377  8161 net.cpp:100] Creating Layer label_data_1_split
I0824 02:34:52.433380  8161 net.cpp:434] label_data_1_split <- label
I0824 02:34:52.433385  8161 net.cpp:408] label_data_1_split -> label_data_1_split_0
I0824 02:34:52.433393  8161 net.cpp:408] label_data_1_split -> label_data_1_split_1
I0824 02:34:52.433462  8161 net.cpp:150] Setting up label_data_1_split
I0824 02:34:52.433476  8161 net.cpp:157] Top shape: 50 (50)
I0824 02:34:52.433480  8161 net.cpp:157] Top shape: 50 (50)
I0824 02:34:52.433481  8161 net.cpp:165] Memory required for data: 30918000
I0824 02:34:52.433493  8161 layer_factory.hpp:77] Creating layer conv1
I0824 02:34:52.433503  8161 net.cpp:100] Creating Layer conv1
I0824 02:34:52.433506  8161 net.cpp:434] conv1 <- data
I0824 02:34:52.433511  8161 net.cpp:408] conv1 -> conv1
I0824 02:34:52.437389  8161 net.cpp:150] Setting up conv1
I0824 02:34:52.437410  8161 net.cpp:157] Top shape: 50 96 55 55 (14520000)
I0824 02:34:52.437413  8161 net.cpp:165] Memory required for data: 88998000
I0824 02:34:52.437422  8161 layer_factory.hpp:77] Creating layer relu1
I0824 02:34:52.437427  8161 net.cpp:100] Creating Layer relu1
I0824 02:34:52.437430  8161 net.cpp:434] relu1 <- conv1
I0824 02:34:52.437434  8161 net.cpp:395] relu1 -> conv1 (in-place)
I0824 02:34:52.437554  8161 net.cpp:150] Setting up relu1
I0824 02:34:52.437561  8161 net.cpp:157] Top shape: 50 96 55 55 (14520000)
I0824 02:34:52.437573  8161 net.cpp:165] Memory required for data: 147078000
I0824 02:34:52.437577  8161 layer_factory.hpp:77] Creating layer pool1
I0824 02:34:52.437582  8161 net.cpp:100] Creating Layer pool1
I0824 02:34:52.437584  8161 net.cpp:434] pool1 <- conv1
I0824 02:34:52.437587  8161 net.cpp:408] pool1 -> pool1
I0824 02:34:52.437616  8161 net.cpp:150] Setting up pool1
I0824 02:34:52.437621  8161 net.cpp:157] Top shape: 50 96 27 27 (3499200)
I0824 02:34:52.437623  8161 net.cpp:165] Memory required for data: 161074800
I0824 02:34:52.437625  8161 layer_factory.hpp:77] Creating layer norm1
I0824 02:34:52.437630  8161 net.cpp:100] Creating Layer norm1
I0824 02:34:52.437633  8161 net.cpp:434] norm1 <- pool1
I0824 02:34:52.437636  8161 net.cpp:408] norm1 -> norm1
I0824 02:34:52.437862  8161 net.cpp:150] Setting up norm1
I0824 02:34:52.437870  8161 net.cpp:157] Top shape: 50 96 27 27 (3499200)
I0824 02:34:52.437883  8161 net.cpp:165] Memory required for data: 175071600
I0824 02:34:52.437886  8161 layer_factory.hpp:77] Creating layer conv2
I0824 02:34:52.437906  8161 net.cpp:100] Creating Layer conv2
I0824 02:34:52.437908  8161 net.cpp:434] conv2 <- norm1
I0824 02:34:52.437912  8161 net.cpp:408] conv2 -> conv2
I0824 02:34:52.446185  8161 net.cpp:150] Setting up conv2
I0824 02:34:52.446218  8161 net.cpp:157] Top shape: 50 256 27 27 (9331200)
I0824 02:34:52.446221  8161 net.cpp:165] Memory required for data: 212396400
I0824 02:34:52.446233  8161 layer_factory.hpp:77] Creating layer relu2
I0824 02:34:52.446240  8161 net.cpp:100] Creating Layer relu2
I0824 02:34:52.446244  8161 net.cpp:434] relu2 <- conv2
I0824 02:34:52.446249  8161 net.cpp:395] relu2 -> conv2 (in-place)
I0824 02:34:52.446486  8161 net.cpp:150] Setting up relu2
I0824 02:34:52.446496  8161 net.cpp:157] Top shape: 50 256 27 27 (9331200)
I0824 02:34:52.446508  8161 net.cpp:165] Memory required for data: 249721200
I0824 02:34:52.446511  8161 layer_factory.hpp:77] Creating layer pool2
I0824 02:34:52.446517  8161 net.cpp:100] Creating Layer pool2
I0824 02:34:52.446521  8161 net.cpp:434] pool2 <- conv2
I0824 02:34:52.446524  8161 net.cpp:408] pool2 -> pool2
I0824 02:34:52.446557  8161 net.cpp:150] Setting up pool2
I0824 02:34:52.446563  8161 net.cpp:157] Top shape: 50 256 13 13 (2163200)
I0824 02:34:52.446564  8161 net.cpp:165] Memory required for data: 258374000
I0824 02:34:52.446566  8161 layer_factory.hpp:77] Creating layer norm2
I0824 02:34:52.446571  8161 net.cpp:100] Creating Layer norm2
I0824 02:34:52.446573  8161 net.cpp:434] norm2 <- pool2
I0824 02:34:52.446578  8161 net.cpp:408] norm2 -> norm2
I0824 02:34:52.446805  8161 net.cpp:150] Setting up norm2
I0824 02:34:52.446812  8161 net.cpp:157] Top shape: 50 256 13 13 (2163200)
I0824 02:34:52.446825  8161 net.cpp:165] Memory required for data: 267026800
I0824 02:34:52.446827  8161 layer_factory.hpp:77] Creating layer conv3
I0824 02:34:52.446835  8161 net.cpp:100] Creating Layer conv3
I0824 02:34:52.446838  8161 net.cpp:434] conv3 <- norm2
I0824 02:34:52.446842  8161 net.cpp:408] conv3 -> conv3
I0824 02:34:52.468039  8161 net.cpp:150] Setting up conv3
I0824 02:34:52.468072  8161 net.cpp:157] Top shape: 50 384 13 13 (3244800)
I0824 02:34:52.468075  8161 net.cpp:165] Memory required for data: 280006000
I0824 02:34:52.468086  8161 layer_factory.hpp:77] Creating layer relu3
I0824 02:34:52.468096  8161 net.cpp:100] Creating Layer relu3
I0824 02:34:52.468098  8161 net.cpp:434] relu3 <- conv3
I0824 02:34:52.468103  8161 net.cpp:395] relu3 -> conv3 (in-place)
I0824 02:34:52.468323  8161 net.cpp:150] Setting up relu3
I0824 02:34:52.468333  8161 net.cpp:157] Top shape: 50 384 13 13 (3244800)
I0824 02:34:52.468345  8161 net.cpp:165] Memory required for data: 292985200
I0824 02:34:52.468348  8161 layer_factory.hpp:77] Creating layer conv4
I0824 02:34:52.468356  8161 net.cpp:100] Creating Layer conv4
I0824 02:34:52.468359  8161 net.cpp:434] conv4 <- conv3
I0824 02:34:52.468364  8161 net.cpp:408] conv4 -> conv4
I0824 02:34:52.484683  8161 net.cpp:150] Setting up conv4
I0824 02:34:52.484709  8161 net.cpp:157] Top shape: 50 384 13 13 (3244800)
I0824 02:34:52.484711  8161 net.cpp:165] Memory required for data: 305964400
I0824 02:34:52.484719  8161 layer_factory.hpp:77] Creating layer relu4
I0824 02:34:52.484727  8161 net.cpp:100] Creating Layer relu4
I0824 02:34:52.484730  8161 net.cpp:434] relu4 <- conv4
I0824 02:34:52.484735  8161 net.cpp:395] relu4 -> conv4 (in-place)
I0824 02:34:52.484951  8161 net.cpp:150] Setting up relu4
I0824 02:34:52.484959  8161 net.cpp:157] Top shape: 50 384 13 13 (3244800)
I0824 02:34:52.484962  8161 net.cpp:165] Memory required for data: 318943600
I0824 02:34:52.484966  8161 layer_factory.hpp:77] Creating layer conv5
I0824 02:34:52.484974  8161 net.cpp:100] Creating Layer conv5
I0824 02:34:52.484977  8161 net.cpp:434] conv5 <- conv4
I0824 02:34:52.484982  8161 net.cpp:408] conv5 -> conv5
I0824 02:34:52.497025  8161 net.cpp:150] Setting up conv5
I0824 02:34:52.497057  8161 net.cpp:157] Top shape: 50 256 13 13 (2163200)
I0824 02:34:52.497061  8161 net.cpp:165] Memory required for data: 327596400
I0824 02:34:52.497072  8161 layer_factory.hpp:77] Creating layer relu5
I0824 02:34:52.497099  8161 net.cpp:100] Creating Layer relu5
I0824 02:34:52.497102  8161 net.cpp:434] relu5 <- conv5
I0824 02:34:52.497107  8161 net.cpp:395] relu5 -> conv5 (in-place)
I0824 02:34:52.497233  8161 net.cpp:150] Setting up relu5
I0824 02:34:52.497241  8161 net.cpp:157] Top shape: 50 256 13 13 (2163200)
I0824 02:34:52.497252  8161 net.cpp:165] Memory required for data: 336249200
I0824 02:34:52.497256  8161 layer_factory.hpp:77] Creating layer pool5
I0824 02:34:52.497262  8161 net.cpp:100] Creating Layer pool5
I0824 02:34:52.497264  8161 net.cpp:434] pool5 <- conv5
I0824 02:34:52.497268  8161 net.cpp:408] pool5 -> pool5
I0824 02:34:52.497303  8161 net.cpp:150] Setting up pool5
I0824 02:34:52.497308  8161 net.cpp:157] Top shape: 50 256 6 6 (460800)
I0824 02:34:52.497309  8161 net.cpp:165] Memory required for data: 338092400
I0824 02:34:52.497311  8161 layer_factory.hpp:77] Creating layer fc6
I0824 02:34:52.497318  8161 net.cpp:100] Creating Layer fc6
I0824 02:34:52.497319  8161 net.cpp:434] fc6 <- pool5
I0824 02:34:52.497323  8161 net.cpp:408] fc6 -> fc6
I0824 02:34:53.350697  8161 net.cpp:150] Setting up fc6
I0824 02:34:53.350721  8161 net.cpp:157] Top shape: 50 4096 (204800)
I0824 02:34:53.350724  8161 net.cpp:165] Memory required for data: 338911600
I0824 02:34:53.350731  8161 layer_factory.hpp:77] Creating layer relu6
I0824 02:34:53.350740  8161 net.cpp:100] Creating Layer relu6
I0824 02:34:53.350744  8161 net.cpp:434] relu6 <- fc6
I0824 02:34:53.350749  8161 net.cpp:395] relu6 -> fc6 (in-place)
I0824 02:34:53.351052  8161 net.cpp:150] Setting up relu6
I0824 02:34:53.351059  8161 net.cpp:157] Top shape: 50 4096 (204800)
I0824 02:34:53.351063  8161 net.cpp:165] Memory required for data: 339730800
I0824 02:34:53.351064  8161 layer_factory.hpp:77] Creating layer drop6
I0824 02:34:53.351070  8161 net.cpp:100] Creating Layer drop6
I0824 02:34:53.351073  8161 net.cpp:434] drop6 <- fc6
I0824 02:34:53.351076  8161 net.cpp:395] drop6 -> fc6 (in-place)
I0824 02:34:53.351099  8161 net.cpp:150] Setting up drop6
I0824 02:34:53.351101  8161 net.cpp:157] Top shape: 50 4096 (204800)
I0824 02:34:53.351104  8161 net.cpp:165] Memory required for data: 340550000
I0824 02:34:53.351105  8161 layer_factory.hpp:77] Creating layer fc7
I0824 02:34:53.351111  8161 net.cpp:100] Creating Layer fc7
I0824 02:34:53.351114  8161 net.cpp:434] fc7 <- fc6
I0824 02:34:53.351119  8161 net.cpp:408] fc7 -> fc7
I0824 02:34:53.730451  8161 net.cpp:150] Setting up fc7
I0824 02:34:53.730474  8161 net.cpp:157] Top shape: 50 4096 (204800)
I0824 02:34:53.730476  8161 net.cpp:165] Memory required for data: 341369200
I0824 02:34:53.730484  8161 layer_factory.hpp:77] Creating layer relu7
I0824 02:34:53.730492  8161 net.cpp:100] Creating Layer relu7
I0824 02:34:53.730496  8161 net.cpp:434] relu7 <- fc7
I0824 02:34:53.730501  8161 net.cpp:395] relu7 -> fc7 (in-place)
I0824 02:34:53.730666  8161 net.cpp:150] Setting up relu7
I0824 02:34:53.730672  8161 net.cpp:157] Top shape: 50 4096 (204800)
I0824 02:34:53.730674  8161 net.cpp:165] Memory required for data: 342188400
I0824 02:34:53.730677  8161 layer_factory.hpp:77] Creating layer drop7
I0824 02:34:53.730682  8161 net.cpp:100] Creating Layer drop7
I0824 02:34:53.730684  8161 net.cpp:434] drop7 <- fc7
I0824 02:34:53.730687  8161 net.cpp:395] drop7 -> fc7 (in-place)
I0824 02:34:53.730708  8161 net.cpp:150] Setting up drop7
I0824 02:34:53.730712  8161 net.cpp:157] Top shape: 50 4096 (204800)
I0824 02:34:53.730715  8161 net.cpp:165] Memory required for data: 343007600
I0824 02:34:53.730716  8161 layer_factory.hpp:77] Creating layer fc8-cats-dogs
I0824 02:34:53.730722  8161 net.cpp:100] Creating Layer fc8-cats-dogs
I0824 02:34:53.730725  8161 net.cpp:434] fc8-cats-dogs <- fc7
I0824 02:34:53.730728  8161 net.cpp:408] fc8-cats-dogs -> fc8-cats-dogs
I0824 02:34:53.730985  8161 net.cpp:150] Setting up fc8-cats-dogs
I0824 02:34:53.730991  8161 net.cpp:157] Top shape: 50 2 (100)
I0824 02:34:53.730993  8161 net.cpp:165] Memory required for data: 343008000
I0824 02:34:53.730996  8161 layer_factory.hpp:77] Creating layer fc8-cats-dogs_fc8-cats-dogs_0_split
I0824 02:34:53.731014  8161 net.cpp:100] Creating Layer fc8-cats-dogs_fc8-cats-dogs_0_split
I0824 02:34:53.731017  8161 net.cpp:434] fc8-cats-dogs_fc8-cats-dogs_0_split <- fc8-cats-dogs
I0824 02:34:53.731020  8161 net.cpp:408] fc8-cats-dogs_fc8-cats-dogs_0_split -> fc8-cats-dogs_fc8-cats-dogs_0_split_0
I0824 02:34:53.731025  8161 net.cpp:408] fc8-cats-dogs_fc8-cats-dogs_0_split -> fc8-cats-dogs_fc8-cats-dogs_0_split_1
I0824 02:34:53.731050  8161 net.cpp:150] Setting up fc8-cats-dogs_fc8-cats-dogs_0_split
I0824 02:34:53.731055  8161 net.cpp:157] Top shape: 50 2 (100)
I0824 02:34:53.731057  8161 net.cpp:157] Top shape: 50 2 (100)
I0824 02:34:53.731060  8161 net.cpp:165] Memory required for data: 343008800
I0824 02:34:53.731062  8161 layer_factory.hpp:77] Creating layer accuracy
I0824 02:34:53.731066  8161 net.cpp:100] Creating Layer accuracy
I0824 02:34:53.731070  8161 net.cpp:434] accuracy <- fc8-cats-dogs_fc8-cats-dogs_0_split_0
I0824 02:34:53.731072  8161 net.cpp:434] accuracy <- label_data_1_split_0
I0824 02:34:53.731076  8161 net.cpp:408] accuracy -> accuracy
…
